data.pth (torch, 5207 bytes, 6 tensors)

l1.weight f4 [8, 58]
00000000: 25a7 103c c567 123f 915f 103f 0d0d 2f3f
00000010: 63a5 073f bcbe 913c 931a e03e 6a4d 933e
00000020: 3158 053f c686 ba3e add5 3d3d 920d 54be
00000030: 61e8 193e c71b dcbd f95b 2b3d 14d6 2dbe
00000040: c9e0 f23e 9920 3cbe fd63 113f 28ab e0be
00000050: 584d 7cbc 2828 bfbe 751a 84be 1aa9 673e
00000060: 40ef cdbe efbf 423f 4886 f6bd 8f58 473f
00000070: b32c 76be 481f 87be 7f51 153f fd85 153f
00000080: ea6d 063f c082 b0be dad8 a73e c801 d73d
00000090: 6b56 bf3e ba46 023f 1cce a83e 3931 d2bd
000000a0: 3257 c73d d2a1 d8be 02f5 2ebe d5d1 f03e
000000b0: 24cb 633e 667e 0a3f 79cc 11bc a114 0ebe
000000c0: 7be5 583e d7dc 11bd 569f d53d ee21 e63e
000000d0: fd96 103d 5159 2cbf 7f3b 57be 99cb 82be
000000e0: 2156 053f 7ff0 be3e c6f2 083f db83 c7bd
000000f0: c1c9 1c3f c1f9 e1be fae6 023f c0bb 053e
00000100: 6dc3 ee3e 3b56 f73e 805f ec3e fb26 103f
00000110: 13f2 363e 62f0 103f 177b 233f 1953 003f
00000120: 31df a33d a891 203e 80f6 c2bd 57cf bb3e
00000130: a797 55be d1a1 cf3e 4bd0 b03e 0fbd dd3d
00000140: 0669 023f eb87 263f 6534 233f 296b 00bf
00000150: 10b9 e23e e155 ddbe f40c 193f 0cbe e53e
00000160: c598 1cbe b31e e13e 2c5d ddbc cbf9 b53e
00000170: 95e4 23bd 0e56 d13e 8459 c73e 1581 cc3e
00000180: 4d01 d63e ffce 1f3b e9d1 dd3d dd16 083f
00000190: 6bb8 f43e 1185 9cbd a593 153f cbfa 8a3c
000001a0: 8111 073e 14eb 493f 0eeb ef3e d8bb e03e
000001b0: dd48 c73d 944e 80be d71e 533e 58e3 f83e
000001c0: 98ad 953e 886d fd3e c4cb c03e f96e 2b3f
000001d0: 3979 d63e 9d31 73be 6f1e 5bbd 138e 09bf
000001e0: 8e0f 013f 6401 c13d cf82 db3e 51f5 bebe
000001f0: c5b0 973e 8e31 5fbe 501e d23c 9510 eb3e
00000200: 138e 193f 90cb 053f d615 393d a724 b53d
00000210: c524 bebb 1ec7 e33e 1610 4ebe 08af 0e3f
00000220: ed24 413e a915 7dbd 776a 0c3f c30b b43e
00000230: eaa6 213f b63e 1cbf 7524 f23e ac07 19bf
00000240: e575 063f 3460 7b3e dc17 acbe e36b 313d
00000250: 354b 42be 5742 d63e 3e59 97bd 77c7 d93e
00000260: face 073e eedc bb3e d0cd a63e bd09 063e
00000270: 66f3 4a3e 31cc 333f 615d d33e f351 4dbe
00000280: b1e8 d43e 9bcf 10be d054 6c3d facb 003f
00000290: 3a38 c83e f776 f43e 657b d93d b65e 02be
000002a0: 0204 053e eb64 2e3f 7df3 b93e 1be2 193f
000002b0: 742b 9f3e 6615 043f 5de8 f03e 7ea2 c43e
000002c0: cb42 093f 776a 553f 63ad bd3e 9be0 1dbe
000002d0: beda aa3e 918b de3e 11ec 023f 8d29 0e3f
000002e0: 669c c4be 39b9 94be a4d7 213d 8558 1fbe
000002f0: 1c46 e7bd 2bc4 98be 8ce6 873e 35f9 67be
00000300: 9283 073f e4c6 96be bca9 023f 621a 23bf
00000310: d8a7 92be b980 6f3e 7a8b acbe fd4a 7d3e
00000320: 5197 2b3d 9ba6 923d 7112 5fbe 10be b33e
00000330: d041 2d3f f004 f53e 7c29 b43e 81e8 3ebd
00000340: bc7a 023f aa09 f13c 9975 043f 9283 fc3e
00000350: 6c77 e63e b59d 8dbe bd22 1cbe 3d0b 03bf
00000360: e144 8cbe e931 df3e 1bbb c43e f5d8 963e
00000370: 691d 53be 0faa 583f fd1f db3e e2f2 0fbe
00000380: 1603 68bd 1a93 103f d0cb cfbe 2ea8 25bf
00000390: e559 92be 320d 07bf cedb a93e 47be df3e
000003a0: c280 2d3f 1772 0e3e 7a50 1e3e d1aa 713f
000003b0: a6ab 363e 08be c1bd d140 203e 6350 993d
000003c0: e918 8dbc c078 0b3e 4396 03bf 0876 0fbe
000003d0: a6ad 55bd 2de3 3dbe f7d1 5fbe 9aa3 a3be
000003e0: 211e d0bd 4f51 0abe b3b3 423f e066 413d
000003f0: aa5e 1e3f 6646 3bbf 8990 89be a4c7 a7bc
0.008828913 0.5718959 0.5639582 0.6837929 0.52986735 0.017791145 0.43770275 0.2877
0.52087694 0.3643095 0.046346355 -0.20708302 0.15030052 -0.107474856 0.04183576 -0.16976196
0.47437122 -0.1837181 0.56793195 -0.43880582 -0.0153993 -0.37335324 -0.25801435 0.22623101
-0.40221596 0.7607412 -0.12037331 0.77869505 -0.24040489 -0.26391053 0.5832748 0.58407575
0.52511466 -0.34474754 0.32782632 0.104983866 0.3737062 0.5088917 0.3296975 -0.10263295
0.09733428 -0.4231096 -0.1708565 0.4703509 0.22245461 0.5409912 -0.008898848 -0.13875057
0.2118129 -0.035611 0.104307815 0.4494776 0.035300244 -0.67323786 -0.2101879 -0.25545958
0.5208455 0.3729286 0.5349544 -0.09741946 0.6124535 -0.4413586 0.5113369 0.13059902
0.46633473 0.48307976 0.4616661 0.5630948 0.17865781 0.56616795 0.63859695 0.50126797
0.08001555 0.15680563 -0.095196724 0.36681625 -0.20858632 0.40553144 0.34533915 0.10827076
0.50941503 0.65051144 0.6375182 -0.50163513 0.44281816 -0.43229583 0.5978539 0.44871557
-0.15292652 0.43968734 -0.027021967 0.3554214 -0.040012915 0.40885967 0.38935483 0.39942232
0.41797867 0.0024384854 0.10831053 0.53159887 0.4779695 -0.07642568 0.5842841 0.01696529
0.13190271 0.78874326 0.4685902 0.43893313 0.097306944 -0.2505995 0.20617233 0.4861095
0.29234004 0.49497628 0.3765546 0.66966206 0.4188936 -0.23749395 -0.05349582 -0.53732413
0.5041436 0.09424093 0.42873237 -0.37296537 0.29627052 -0.21796247 0.02564922 0.4591109
0.59982413 0.52263737 0.04518684 0.088448815 -0.005802723 0.44487852 -0.20123324 0.55735826
0.18861742 -0.061788235 0.5484995 0.35165223 0.63145316 -0.6103319 0.4729344 -0.5977733
0.5252364 0.24548417 -0.33611953 0.04331578 -0.18974002 0.41847488 -0.073900685 0.42534992
0.13262549 0.36691993 0.32578897 0.13089652 0.19819412 0.70233446 0.4128218 -0.20050792
0.4158378 -0.14141695 0.05769807 0.50311244 0.39105397 0.47747013 0.10619239 -0.12731442
0.1298981 0.6812274 0.3631858 0.60110635 0.3108784 0.5159515 0.4705228 0.38405222
0.53617543 0.8336558 0.37046346 -0.15417711 0.33370012 0.43465856 0.5114146 0.5553215
-0.38400573 -0.29047564 0.03951229 -0.15561111 -0.11292669 -0.29837164 0.2654308 -0.22653659
0.52935135 -0.29448617 0.51040244 -0.6371213 -0.2864368 0.23388948 -0.33700162 0.24735637
0.041892353 0.07160684 -0.21784379 0.35105944 0.67678547 0.4785533 0.351879 -0.04660845
0.5096853 0.029423553 0.5174194 0.4931913 0.45012987 -0.27659383 -0.15247627 -0.51189023
-0.273963 0.43592766 0.38424 0.294624 -0.20616688 0.8463449 0.42797843 -0.14057496
-0.056643568 0.5647446 -0.40585184 -0.64709747 -0.2858421 -0.5275451 0.3317551 0.43699858
0.67774594 0.1391071 0.15460387 0.9440127 0.17838916 -0.09460074 0.15649725 0.07486036
-0.017223792 0.13620281 -0.51401156 -0.14009869 -0.052167557 -0.18543692 -0.21857439 -0.31960756
-0.10161997 -0.1350758 0.7605545 0.04721725 0.61863196 -0.73154294 -0.26868084 -0.020480938

l1.bias f4 [8]
00000000: 38b3 123f 1227 593f 538f 093f c8ae 2e3f
00000010: b468 553f 2745 1f3f 54c4 383f af2e 4b3f
0.57304716 0.8482524 0.5373432 0.68235445 0.8336289 0.62214893 0.7217457 0.7936811

l2.weight f4 [8, 8]
00000000: 88fc 4dbf 6465 503f fb86 7f3f 33e5 92bf
00000010: e7ce 2abf a02e 6d3f 1c80 893f 0725 c43e
00000020: 7305 42bf f5c9 ed3e 669c 0d3f fc69 92be
00000030: f4c1 a03f f7d2 f1be dcd5 5cbf 9a78 6cbf
00000040: 936b 743e 6de3 9b3f 6a71 a73f 4151 e93e
00000050: 33f2 42be 8774 83be 45d5 50bf ccad 00bf
00000060: f1cf 87be edd2 59be c729 a7be e04e 803d
00000070: 3007 863d 1088 09be 2c69 b63d 1f89 33be
00000080: afd0 973f cb9d c23e b566 45bf fdec ad3f
00000090: 4cc6 a23f 5445 63bf 6e49 213f d19d 043f
000000a0: 2ad0 593e 9fd5 9d3e 516d 0d3e 350b a3bd
000000b0: 5f81 d2be d6bd 523f 1b3f 28be e13a 5c3f
000000c0: 8f4b 12bf 6837 ba3e a55e 293f 5c8e 00be
000000d0: 09bd d13e 329b 6abf 8d4a a1be 7cfa 21bf
000000e0: ea03 973f ee8a 743c 6b0a 69bf 3b9c a33e
000000f0: c756 4dbd 3ccb 883f 60b1 4dbd 3f2b 973f
-0.8046346 0.8140471 0.9981534 -1.1476196 -0.6672196 0.9264927 1.0742221 0.383095
-0.75789565 0.46443143 0.5531677 -0.28596485 1.255919 -0.47231266 -0.86263824 -0.92371523
0.23869161 1.217878 1.3081486 0.45569804 -0.19037704 -0.2567484 -0.81575423 -0.50265193
-0.26525834 -0.21271868 -0.3264906 0.06265044 0.0654434 -0.1343081 0.08906779 -0.17532776
1.186056 0.3801101 -0.77109843 1.3587948 1.2716765 -0.8877766 0.6300267 0.5180331
0.21270815 0.30827042 0.13811232 -0.07961122 -0.41114327 0.82320917 -0.16430323 0.8602734
-0.57146543 0.36370397 0.6616004 -0.12554306 0.40964535 -0.9164306 -0.3150219 -0.63272834
1.179807 0.014925702 -0.9103152 0.31955132 -0.050131585 1.0687022 -0.050217986 1.1810073

l2.bias f4 [8]
00000000: 86a2 063f af85 20be 5e94 c23e 6034 cabc
00000010: 63f6 493f e735 55be 5dbd cf3e 3f46 eabd
0.5259174 -0.15675996 0.3800382 -0.024683177 0.7889158 -0.20821343 0.4057416 -0.1143918

l3.weight f4 [7, 8]
00000000: f613 f83e 50e1 95bf 8aac 013f e026 273c
00000010: ca2d 67bf 41df 003f b048 eebd eaaf a9bf
00000020: d79e 95bf 660d 21bf a80f 70bf b046 0dbd
00000030: 75fe dabd f284 573f c6de 93be 16b5 0b3f
00000040: 2f4e ffbe 3aa1 9abf 3a6e 9dbf 9514 1abe
00000050: bd53 423f 1060 afbf 582e 01bf 6579 853e
00000060: 234c 1d3f 824c 2bbf 3043 68bf f067 88be
00000070: 737d 27bf b0e4 0b3f 2119 3cbf e438 9e3e
00000080: 3c72 1f3e 1020 413f c98c 073f 60c3 343c
00000090: b752 8abf 068d 88bf bba6 133f 189a e8be
000000a0: da40 4fbf 7ac6 bbbf 2496 223f c0bd 00bd
000000b0: 7ee9 1d3e f78c 7dbe 3a15 6abf 185a 4c3c
000000c0: 351e 11bf ab94 ce3d a562 103f 9e5a 3f3e
000000d0: 3649 a93e ba58 cdbf 22f2 603e a5fd b5bf
0.4845273 -1.1709385 0.506539 0.01020214 -0.90304244 0.5034066 -0.11634958 -1.325681
-1.1689099 -0.6291107 -0.9377389 -0.03449124 -0.10693065 0.84187233 -0.288809 0.5457319
-0.49864337 -1.2080452 -1.2299263 -0.15046914 0.75909024 -1.3701191 -0.5046134 0.2606918
0.614443 -0.66913617 -0.9072752 -0.26641798 -0.65425795 0.54645824 -0.73475844 0.3090278
0.1557092 0.7543955 0.52949196 0.011032909 -1.0806493 -1.0668037 0.57676286 -0.45430064
-0.8095833 -1.4669945 0.63510346 -0.03143096 0.15421101 -0.24760805 -0.9143864 0.012472652
-0.5668672 0.1008695 0.5640052 0.18686911 0.33063668 -1.6042702 0.21967366 -1.4218031

l3.bias f4 [7]
00000000: 485e 16be 5394 6abe 803a 2bbc 4a63 3c3e
00000010: 9cd3 f0be 5b34 0cbf 4ce7 94bd
-0.14684403 -0.22908144 -0.010450959 0.18397251 -0.47036445 -0.5476739 -0.07270679
